saved_models/03_cnn_MITF.pt (torch, 6663 bytes, 11 tensors)

conv0.weight f4 [4, 4, 1, 1]
000000 55 0a 90 3f fd 7b 76 3e fd 25 29 3d 84 dc 04 3f
       1.1253153 0.24070735 0.041295994 0.5189898
000010 15 5d cc be ae 1e 80 3e 1b 5f 9b bc c4 2c 2e 3f
       -0.39914766 0.25023407 -0.018966248 0.68037057
000020 c0 24 2e 3f 4f 83 28 bf 9b 16 35 3f 3c 5c 95 3d
       0.68024826 -0.6582536 0.7073762 0.07292983
000030 c2 72 39 3d 90 ce 0b 3e b3 cc 2d 3f f0 83 41 bf
       0.045275457 0.13653016 0.6789047 -0.75591946

conv0.bias f4 [4]
000000 c4 7c 26 3f 81 a4 99 3e 5b 02 0a bf e6 94 55 3e
       0.6503413 0.3000832 -0.53909844 0.20857581

conv1_M.weight f4 [4, 4, 4, 1]
000000 47 84 1b be 39 99 03 be 26 62 92 bd c4 c1 d4 3d
       -0.15187179 -0.12851419 -0.071476266 0.1038852
000010 ef 29 21 3e 6f 3e c2 be 83 00 11 be 6e 16 09 be
       0.15738653 -0.37938258 -0.14160351 -0.13387462
000020 2f 68 6d be 1d c0 83 be 72 19 e5 bd 97 3b 3e bf
       -0.23184274 -0.25732508 -0.11186494 -0.74309677
000030 12 3d aa bc a5 ad f9 3e 75 b9 0d 3e 2a 3a 08 3f
       -0.020781074 0.48765293 0.13840277 0.5321375
000040 58 63 d4 3d 25 b1 6a 3e d6 22 a1 3d f2 f7 ff bc
       0.10370511 0.22919138 0.078679726 -0.03124616
000050 3f 8b ef 3d c2 2d 1e be 94 1b f1 3c af 6e f1 3e
       0.11696481 -0.15447143 0.029432096 0.47154757
000060 fc e9 59 3e 54 b7 e8 be a2 11 fe be 67 90 b2 3d
       0.21280664 -0.45452368 -0.49622828 0.08718949
000070 46 c4 ee 3d af 42 ff bb d9 52 89 be ff 65 f4 be
       0.1165853 -0.0077899317 -0.2682102 -0.47734067
000080 77 25 3b 3d 14 f8 00 3f ad 0f 3b 3e 85 67 b0 3e
       0.045690026 0.5037854 0.18267699 0.3445398
000090 57 2b bf 3e 17 72 c3 3e 00 95 04 3e b1 77 15 be
       0.37337753 0.3817298 0.12947464 -0.1459644
0000a0 f4 6c 17 bf 6c 3a b9 be af 18 7d 3e 5c 0a fa bd
       -0.59150624 -0.36177385 0.24716447 -0.12209007
0000b0 10 88 52 be 7e 7f 08 be 6a 33 43 3f ee 24 e9 3d
       -0.20559716 -0.13329884 0.76250327 0.11383997
0000c0 7b a7 e8 bd e7 22 2e bd e7 09 82 bd 88 3a 79 bd
       -0.11360069 -0.042513754 -0.06349545 -0.060846835
0000d0 1d 7b 04 bd b5 32 35 3b bc e1 52 bd f5 00 fc 3b
       -0.032343972 0.0027648632 -0.05148481 0.007690544
0000e0 90 fe 95 bd d2 52 15 bc 2d e8 27 bc f2 a7 ab 3c
       -0.073239446 -0.009113984 -0.010248226 0.020954106
0000f0 0a fc 65 3d fe ab 88 bd fe 1d 47 3b 83 11 ed bc
       0.056148566 -0.0667343 0.0030382867 -0.028939014

conv1_M.bias f4 [4]
000000 11 f6 a4 3e 52 09 91 3d 2b 66 c6 3e 11 64 99 bd
       0.32218984 0.07081856 0.38749823 -0.07489789

conv1_m.weight f4 [4, 4, 3, 1]
000000 76 56 c1 bd ce b1 a1 bd ab 17 38 bd 2c e7 d6 bd
       -0.09440319 -0.07895242 -0.044944447 -0.10493311
000010 90 bf 87 bd 8a 23 0c be f7 f9 a0 3d ff 6d 1a 3c
       -0.066283345 -0.13685432 0.07860177 0.009425639
000020 78 e6 86 3d a1 27 a4 3d 89 e9 67 bd 3d 66 ed bc
       0.06586927 0.08015371 -0.0566192 -0.028979415
000030 08 f7 88 b5 c6 bf 9e af a2 45 e9 b3 6f 7d a5 ad
       -1.0204685e-06 -2.8876296e-10 -1.0862574e-07 -1.8814032e-11
000040 b7 0b 5a 91 f1 57 55 ae 1b aa 0c 1e c7 bb dc ac
       -1.7200778e-28 -4.85087e-11 7.446715e-21 -6.2736235e-12
000050 bb ed 4a a4 90 00 ea 26 2e cb b4 ac 4e c5 87 a4
       -4.4003133e-17 1.6237164e-15 -5.138465e-12 -5.8881164e-17
000060 81 b9 26 bd 7f 3f 2c bd e2 df 1f bd 8a 8b 01 bd
       -0.040704254 -0.042052742 -0.03903187 -0.031627215
000070 9e ca b2 bc 0e 87 db bc 85 dd eb 3c 02 43 4a bc
       -0.021825131 -0.026797798 0.028792152 -0.0123450775
000080 6d c6 5c bc bd 8f 90 3c 36 99 0d bc b9 5c 88 bc
       -0.013475043 0.017646665 -0.008642485 -0.016645776
000090 f6 d4 4a b3 04 55 a3 a6 bd 8a 04 b4 19 6f 1e 23
       -4.7225477e-08 -1.1333441e-15 -1.234393e-07 8.588723e-18
0000a0 2a 8d 3e 07 33 25 10 24 f4 0d a0 10 d1 bd cb a0
       1.4335496e-34 3.125653e-17 6.313037e-29 -3.4515148e-19
0000b0 44 4e 76 8f b5 fc 81 8f 10 3f 95 21 12 1e 09 90
       -1.214381e-29 -1.2817721e-29 1.0113325e-18 -2.704165e-29

conv1_m.bias f4 [4]
000000 b1 c4 ac bd fa 27 8d b3 ba c1 2a bd ab c7 f9 b2
       -0.084359534 -6.573096e-08 -0.04168866 -2.9078214e-08

conv2.weight f4 [4, 4, 2, 4]
000000 4d 69 f8 3e 68 a4 c3 be 5f a3 42 3f 1a 48 cc 3e
       0.48517838 -0.3821137 0.76030535 0.3989876
000010 5b 12 d6 bd 24 ee 78 bd d3 86 b9 bd e8 b2 91 bc
       -0.1045272 -0.060773984 -0.09058919 -0.017785504
000020 84 81 83 3d b7 b9 82 3d 4f d8 82 3d 5f 73 d2 3e
       0.064211875 0.063830785 0.06388914 0.41103646
000030 7f f0 21 8e 01 27 5e 0e 4e c0 31 8e e5 19 a2 0f
       -1.9960577e-30 2.7382392e-30 -2.1909526e-30 1.5984408e-29
000040 11 f0 e6 3e 82 5e 60 3e 8f c7 9a 3e e1 e6 20 be
       0.4510503 0.21911052 0.30230376 -0.15713073
000050 8d 27 4f bd 75 35 20 bd 21 97 43 bd a6 4f 1c bd
       -0.050574828 -0.03911348 -0.04775155 -0.038161896
000060 8b 64 e2 3c 26 31 84 bc 6f ec 09 3d f6 c6 a7 3c
       0.027635833 -0.016136717 0.033672746 0.020480614
000070 19 cf 77 05 63 67 30 89 ea f1 15 07 c0 be a9 0a
       1.1651922e-35 -2.1233842e-33 1.1280606e-34 1.634586e-32
000080 74 5d 07 bd 39 07 18 bd 7d b5 07 bd 1e e3 f2 bc
       -0.03304811 -0.037116263 -0.033132065 -0.029649314
000090 cc 8d f5 02 14 d4 d0 01 d8 87 f5 82 2b c1 c4 02
       3.6080902e-37 7.671145e-38 -3.6077485e-37 2.8910485e-37
0000a0 f9 9c 5d bc 5f f2 03 3c 8c 3b b8 3a 75 df 0b 3b
       -0.013526195 0.008053391 0.0014055832 0.0021342908
0000b0 6b 49 e1 00 44 09 62 02 35 dc c8 00 95 ed 1a 01
       2.0689324e-38 1.6606517e-37 1.8446095e-38 2.845579e-38
0000c0 e4 93 05 bc 74 12 a4 bc 41 2a e8 bc ce a4 0c bc
       -0.008152936 -0.02002833 -0.02834046 -0.008584214
0000d0 92 cf 71 85 06 77 8a 05 18 1e 1b 86 96 a8 2d 85
       -1.136989e-35 1.302118e-35 -2.917437e-35 -8.165385e-36
0000e0 81 13 18 8c d1 43 be 0a aa 9a c7 8b c4 dc aa 8b
       -1.1715523e-31 1.8321844e-32 -7.6884724e-32 -6.581379e-32
0000f0 ee 1b 01 04 78 05 46 01 66 ea 09 83 73 f7 91 80
       1.5176702e-36 3.637078e-38 -4.0529758e-37 -1.3404915e-38
000100 b8 92 54 bf bf 5b 20 bf 24 15 3b bc 79 b1 4c 3e
       -0.83036375 -0.62639993 -0.011418615 0.19989575
000110 65 f6 20 3e 7e 53 90 bc be 24 0a 3e 52 b9 f1 3d
       0.15718992 -0.017617937 0.13490579 0.11802925
000120 47 9f b4 be 18 2c c2 be 4d 20 2b 3e 51 5c de 3d
       -0.3527777 -0.37924266 0.1671154 0.10857452
000130 73 fc 0f 14 87 df 86 8f 8b 27 c7 90 5c 76 d3 0d
       7.269442e-27 -1.329952e-29 -7.8552586e-29 1.3032373e-30
000140 68 85 b6 3e 71 78 e5 3e 4d e2 d0 bd a5 31 90 3d
       0.35648656 0.44818452 -0.101994134 0.07040719
000150 71 91 ff bc 7a 67 12 bd 44 f2 0c bd 06 99 09 bd
       -0.031197282 -0.035743214 -0.03441073 -0.0335932
000160 ff 88 ec bc be ac c8 3d 1d 44 cb 3b a1 82 a9 3b
       -0.028873919 0.09798573 0.006203188 0.005173043
000170 73 12 a2 87 32 ac fc 88 46 d5 60 86 36 59 9e 89
       -2.4385894e-34 -1.5207181e-33 -4.2286406e-35 -3.812101e-33
000180 77 ad be 88 6d e0 87 08 3a 33 9b 89 6a 3f dd 87
       -1.147599e-33 8.177779e-34 -3.7363066e-33 -3.3289656e-34
000190 a1 82 22 02 dd 5c e4 81 8b 71 59 81 f8 2d d3 01
       1.1939369e-37 -8.3887225e-38 -3.9938068e-38 7.757512e-38
0001a0 7f 7e a4 bc ce ff 1e bc 78 3d 83 bc 90 6f cb bb
       -0.02007985 -0.009704543 -0.016020522 -0.0062083676
0001b0 2f c3 11 82 94 88 a6 82 81 61 dc 81 9a 83 14 83
       -1.0708932e-37 -2.44699e-37 -8.095515e-38 -4.364436e-37
0001c0 b9 0b b1 bb 0e db 12 bc 90 87 3d bc 66 9f 6a bc
       -0.005403009 -0.0089633595 -0.011567965 -0.01432023
0001d0 1c d4 a3 01 63 96 e6 82 b9 cc 2a 82 b4 b8 42 82
       6.0181106e-38 -3.388178e-37 -1.254838e-37 -1.4305876e-37
0001e0 a9 84 51 83 d5 7b 46 01 77 a9 01 83 21 73 00 02
       -6.1571866e-37 3.6455702e-38 -3.810423e-37 9.436995e-38
0001f0 73 6b e9 81 39 a9 fc 02 e5 09 49 00 18 5e 10 00
       -8.5744864e-38 3.71252e-37 6.707541e-39 1.503122e-39

conv2.bias f4 [4]
000000 ea 55 e5 3d 73 b0 ad bc 83 2b 81 3e 2a e6 79 bc
       0.111980274 -0.021202302 0.2522851 -0.015252629

fc1.weight f4 [8, 24]
000000 f9 77 3c bc 5a d3 21 be 9f 7d 7c bd 29 32 2f be
       -0.011503213 -0.1580328 -0.06164324 -0.17108978
000010 23 fb f6 bd 3c 85 18 bd 34 25 2b 02 34 04 b1 01
       -0.12059619 -0.037236437 1.2573773e-37 6.502556e-38
000020 fb 17 6c 80 3d 1a 55 82 03 c6 0f 80 4d 10 5b 04
       -9.926836e-39 -1.5656299e-37 -1.448566e-39 2.5750811e-36
000030 7d 55 4b 3d 90 42 63 be b9 c1 ba bd a8 e4 43 be
       0.049642075 -0.2219336 -0.09118981 -0.19130194
000040 f8 e7 f8 3c e2 70 11 be d7 61 18 00 37 01 87 82
       0.030384049 -0.14203218 2.23915e-39 -1.9837164e-37
000050 bf 70 05 05 e4 bb 89 82 6d 1c 33 85 99 b9 95 01
       6.274338e-36 -2.0238185e-37 -8.4217605e-36 5.5000275e-38
000060 9e 1d 52 b8 1d 1a 40 b8 79 27 c7 b5 d8 e6 2f b7
       -5.0095485e-05 -4.5800687e-05 -1.4838143e-06 -1.048456e-05
000070 95 94 07 b8 30 7e f2 b7 15 d2 b4 04 af 1f 27 01
       -3.2324886e-05 -2.8907409e-05 4.2510727e-36 3.0695788e-38
000080 1a 57 79 00 e4 6a 4b 02 1f b2 33 82 b9 8c 01 03
       1.1143341e-38 1.4944761e-37 -1.3201961e-37 3.8071235e-37
000090 bd 8c 25 b8 8f 38 54 b8 fa b4 1a b4 61 34 d9 b7
       -3.947014e-05 -5.0597413e-05 -1.4408207e-07 -2.5892807e-05
0000a0 50 6c 70 b7 b1 ab a2 b8 d1 80 f9 05 03 44 3c 00
       -1.4330333e-05 -7.756742e-05 2.3463167e-35 5.534528e-39
0000b0 12 22 73 04 b8 de 0a 02 71 8e f6 03 5e 29 af 02
       2.8580157e-36 1.0202556e-37 1.44912835e-36 2.5737683e-37
0000c0 4b f9 74 83 37 98 8d 27 b3 bc c0 ac df 74 ae 85
       -7.199133e-37 3.9300393e-15 -5.477918e-12 -1.6405813e-35
0000d0 32 b9 62 06 9e 74 55 07 5d 67 1f 80 1d dd 90 02
       4.2641936e-35 1.605861e-34 -2.88398e-39 2.128581e-37
0000e0 36 b8 33 02 57 3f 54 81 f6 a0 ad 01 12 70 25 03
       1.3203709e-37 -3.8983694e-38 6.378113e-38 4.8617792e-37
0000f0 ad 2a 20 bc 29 61 36 bd bb 51 14 bc 3d aa 72 bb
       -0.0097758 -0.044526253 -0.009052689 -0.003702774
000100 6d 70 06 bc 49 04 df bc cf e4 59 00 5c aa d4 81
       -0.008205515 -0.027223723 8.25544e-39 -7.8120954e-38
000110 7a 48 c9 01 53 06 db 01 d6 c4 36 80 31 4f 9b 84
       7.393974e-38 8.045697e-38 -5.029728e-39 -3.651305e-36
000120 ff 38 28 3e 59 a3 5f be 92 be 5e 3f e6 f0 ee 3b
       0.16427992 -0.21839656 0.8700954 0.007291901
000130 4b 98 2f be 40 75 42 3e 6f 23 32 3d aa 0d ec 3c
       -0.17147939 0.1899004 0.043490823 0.02881511
000140 11 b2 dc 3c 40 72 4c 3d 9c 5e 62 3d 0d 6d 14 3d
       0.026940377 0.049913645 0.055266008 0.03623681
000150 3b 7a 19 3f d1 81 31 be 4d 60 ab 3d 42 55 9b bd
       0.59952134 -0.17334677 0.08367977 -0.07584621
000160 30 92 ac be 95 9a 28 be bb ad 5d bb 7f 0a 38 bb
       -0.33705282 -0.16465218 -0.0033825475 -0.0028082428
000170 18 64 c1 b9 b1 ec b4 bb 5c ed b5 bb 67 b4 b9 bb
       -0.00036886404 -0.00552138 -0.005551977 -0.0056672576
000180 1d 4e 24 3e 56 13 aa 3c 78 0b bd 3e 2e 28 22 3b
       0.16045423 0.020761173 0.36922812 0.0024743187
000190 16 97 d4 be 67 85 78 3e b2 44 18 3d cd 5b a1 3c
       -0.4152152 0.24269639 0.037174888 0.019697094
0001a0 e5 89 a4 3c 91 8f 42 3d f5 50 47 3d 5c 78 f2 3c
       0.020085284 0.047500197 0.04866119 0.029598407
0001b0 75 fe e7 3e 68 96 f3 3c a0 a4 bc 3d 52 5c 8f be
       0.45311323 0.029734805 0.09211087 -0.28000122
0001c0 79 e5 bb be a4 9d ce 3d 8b 00 86 bb 4f b2 bf bb
       -0.3669851 0.10088661 -0.00408942 -0.0058501135
0001d0 0a c1 d0 b9 b7 af 14 bc 69 ba 37 bc da 53 1e bc
       -0.00039816677 -0.009075097 -0.011213877 -0.009663546
0001e0 7b df bc 02 58 23 f1 8a e9 c6 b4 90 58 29 08 18
       2.7752389e-37 -2.322075e-32 -7.130395e-29 1.7598461e-24
0001f0 a6 4e 80 82 50 e7 60 02 c9 5e 78 04 31 40 08 00
       -1.8853052e-37 1.6523304e-37 2.9195783e-36 7.57712e-40
000200 bc 15 93 03 74 21 1c 00 bd fe a0 02 c2 4f c9 82
       8.644873e-37 2.583395e-39 2.36561e-37 -2.9580074e-37
000210 7f 9b 76 bb 3b ca 0f bc 12 20 b2 ba 2c 57 8f ba
       -0.0037629304 -0.008776243 -0.001358988 -0.0010936013
000220 d3 89 4f bb ba 7b e4 3b c8 62 12 80 71 da a3 02
       -0.0031667843 0.006972757 -1.688475e-39 2.4076077e-37
000230 cf e6 55 81 9f 46 ee 80 f2 8e 77 00 9e 60 b7 05
       -3.9287518e-38 -2.1882182e-38 1.0979703e-38 1.7244729e-35
000240 84 9b 20 be c5 b4 60 be df a4 86 3d 6b 84 98 3d
       -0.15684325 -0.21943958 0.065744154 0.07447132
000250 1e b3 b8 bc 8d cf 32 be 11 2d ed 00 dc e2 ff 81
       -0.022546347 -0.17461987 2.178118e-38 -9.3997733e-38
000260 2a 11 bb 01 c0 ba df 02 bf a6 00 00 4d 46 71 02
       6.871758e-38 3.2874094e-37 5.9817e-41 1.7726059e-37
000270 c9 de 91 3d d4 bf de bd 59 69 55 3d 56 38 53 be
       0.07122571 -0.10876432 0.05210242 -0.20626959
000280 b9 7d 4e bd 15 02 47 bd cf db 20 00 fa 10 47 00
       -0.050412867 -0.04858597 3.017588e-39 6.52641e-39
000290 fd 50 59 00 16 47 90 80 51 3f 14 02 b1 26 e6 00
       8.202412e-39 -1.3249812e-38 1.0891494e-37 2.1136044e-38
0002a0 50 1c df 3d 5a 14 37 3e 38 80 36 3f 28 d0 2c 3e
       0.10894072 0.17878857 0.71289396 0.1687628
0002b0 1e 68 2a be 61 45 69 3b 3a bd 92 3c 78 fa 88 bb
       -0.1664128 0.0035594332 0.017912496 -0.004180249
0002c0 ca 95 a5 3b d8 0f 60 3d 6d a8 2b 3d b6 2a 79 3c
       0.0050532566 0.05470261 0.04190867 0.015207937
0002d0 5f d4 72 3e 60 cf 1e 3e 03 84 7d 3e 9d ac c8 3d
       0.23713826 0.15508795 0.2475739 0.09798548
0002e0 64 50 22 bf 2e 3b 22 bb a3 0c bb bb 24 7d b8 bb
       -0.63403916 -0.0024754512 -0.0057082935 -0.0056301523
0002f0 3e 02 80 b9 ca 28 2b bc d0 01 3b bc 2d 79 28 bc
       -0.00024415733 -0.010446737 -0.011414006 -0.010282797

fc1.bias f4 [8]
000000 db d6 01 3e b2 22 a7 ba 23 bc ad 3a 84 ce fe 3d
       0.12679617 -0.0012751429 0.0013254922 0.124417335
000010 dd f2 1e 3e 7f b3 e9 3b 50 d1 cb 3d c5 dd 6c 3e
       0.15522332 0.0071319933 0.099520326 0.23131473

fc2.weight f4 [1, 8]
000000 55 32 1f 3e 46 dd 7c 09 02 17 eb 3d cf ed 1c bf
       0.15546544 3.0437439e-33 0.11478998 -0.6130037
000010 8e 42 fd be de 5b 13 3d b9 ad e5 3d 27 b1 1b bf
       -0.4946484 0.035976283 0.112147756 -0.6081719
