saved_models/03_cnn_ETS1.pt (torch, 6535 bytes, 11 tensors)

conv0.weight f4 [4, 4, 1, 1]
000000 a5 b7 e7 be d8 53 3e bf 9c dd 55 be 8b f9 8a 3f
       -0.45257297 -0.74346685 -0.20885319 1.0857404
000010 84 d9 17 bf d9 d9 01 3e d2 af e0 be 41 b5 d3 3e
       -0.5931628 0.12680759 -0.4388414 0.41349223
000020 94 9a 82 3f f6 3e 3f bf b2 4a ee 3e ce 80 72 3e
       1.0203424 -0.74705446 0.46541363 0.23681948
000030 80 ce 4e 3f 30 4d 22 3f 55 d8 36 3f d6 2b 44 bf
       0.80783844 0.6339903 0.71423846 -0.7662939

conv0.bias f4 [4]
000000 5b c1 0f 3f 86 61 89 3e b5 d8 fa be 66 2b 16 be
       0.5615441 0.26832217 -0.4899346 -0.14664993

conv1_M.weight f4 [4, 4, 4, 1]
000000 41 96 4c be 3d d1 08 be 51 14 81 bd 5a ba 97 3e
       -0.19979192 -0.13361068 -0.06302703 0.29634362
000010 c5 21 0e bf 9b c4 45 be 78 7e bc bb 2b cc 35 3d
       -0.5552028 -0.1931328 -0.005752381 0.044384163
000020 ea 6f e1 3e 31 1f 80 3d 55 05 9a 3e a1 af 40 bd
       0.44030696 0.06255949 0.30082193 -0.047042493
000030 4c 86 99 3e e0 52 bb 3d 58 b4 2a be cb 94 89 be
       0.29985273 0.091466665 -0.16670358 -0.26871333
000040 1f 4b 87 3e 73 35 29 3f e8 d5 83 3d 81 34 92 be
       0.264245 0.6609718 0.06437284 -0.28555682
000050 8c f4 ae 3e 93 57 aa 3e 35 dc a4 3d 82 93 9a 3c
       0.3417095 0.3326994 0.08049814 0.018869165
000060 e2 e7 39 3d d9 ed 09 3f d4 4a f0 3e 3b 43 c2 be
       0.045387156 0.5387855 0.4693209 -0.37941918
000070 5a 67 3b bd 9d fe 2e bf e6 7a 03 bf c5 33 1f 3e
       -0.04575286 -0.6835726 -0.51359403 0.15547092
000080 df 7c cd 3c 6d 18 ce 3e d9 dd 08 3e 20 43 c5 3e
       0.025083957 0.4025301 0.13365878 0.38527775
000090 4b c8 62 3e 4b 9f c1 3e 6d b0 5f 3d 3e 74 eb 3c
       0.22146718 0.37816843 0.054611612 0.028741952
0000a0 32 21 3b bf 1e f4 62 bf a3 03 03 be 11 1a b3 be
       -0.7309753 -0.88653743 -0.12794356 -0.34980825
0000b0 06 be 9f 3d 95 e4 aa be 01 3c d8 3e 6c 95 2b bf
       0.07799916 -0.3337752 0.4223328 -0.67024875
0000c0 bb c6 80 bd 65 b5 89 bd 6f 60 8d bd b4 ed 5d bd
       -0.06287905 -0.067240514 -0.06903159 -0.05418177
0000d0 a2 83 bd bc b9 d7 a2 bc 9f 1d 69 bc c9 dc f7 bb
       -0.023134056 -0.019878255 -0.014228254 -0.0075641614
0000e0 d2 27 8a bb 05 a3 8c 3c 11 0e 8a 3c 7d 70 22 3b
       -0.0042161727 0.017167578 0.01685241 0.0024786287
0000f0 58 63 7c 3c f7 ad 17 3c 19 e4 ce 3a 20 4f 97 bc
       0.015404545 0.009257785 0.0015784531 -0.018470347

conv1_M.bias f4 [4]
000000 09 91 85 3d 9e ec 27 bd d1 7f c8 3e 9e ad c0 bd
       0.06521804 -0.04099714 0.39160016 -0.09408115

conv1_m.weight f4 [4, 4, 3, 1]
000000 98 c3 16 bd 9d cc 45 bc a4 60 f4 bc 05 fa 56 bc
       -0.036807626 -0.012072709 -0.029831238 -0.013121133
000010 42 a5 46 92 16 3a 58 bb bb 02 10 3b 35 fb 26 b6
       -6.268148e-28 -0.0032993606 0.0021974284 -2.488215e-06
000020 3c 18 3b 34 5b aa ae 3c 88 b5 13 b9 6f 04 c2 3b
       1.7424549e-07 0.021321466 -0.00014086638 0.0059209387
000030 68 71 0f bb 2f 9e 80 ba 17 08 15 bb ad 2b 87 b9
       -0.0021887664 -0.0009812767 -0.0022740418 -0.00025781748
000040 96 c1 0a b4 90 28 e7 b8 1f ca 87 35 d0 88 00 80
       -1.2922678e-07 -0.00011022494 1.0117109e-06 -4.9079e-41
000050 f5 87 e0 1d 3e 54 69 39 83 89 00 80 8a 3f 95 37
       5.9432883e-21 0.00022251994 -4.933e-41 1.7791772e-05
000060 bc 61 ca bd 43 4d 58 3e ff 42 57 3e 27 cd 08 be
       -0.098819226 0.21123223 0.2102165 -0.1335951
000070 e9 2b 02 3f 09 e5 80 3e 47 17 96 be a8 3c ba bf
       0.5084825 0.2517474 -0.29314634 -1.4549761
000080 27 80 30 bf b3 82 68 3e bf d9 53 bf f7 c1 a6 be
       -0.68945545 0.22706108 -0.8275413 -0.32569858
000090 46 b7 a3 ab 98 36 bd 84 df 35 a1 ab c7 c6 2f 9d
       -1.1632715e-12 -4.4483823e-36 -1.145469e-12 -2.3263823e-21
0000a0 94 8a 00 00 91 f9 e9 9c ac 89 00 00 24 8a 00 00
       4.9712e-41 -1.5483158e-21 4.9387e-41 4.9556e-41
0000b0 b1 89 00 00 5f 9b f4 13 ce 89 00 00 bb 44 8a 13
       4.9394e-41 6.1747467e-27 4.9435e-41 3.490387e-27

conv1_m.bias f4 [4]
000000 fa 26 dc bc bd 79 06 bb f7 cd 4c 3e eb e6 94 a7
       -0.026874054 -0.002051934 0.20000444 -4.1328614e-15

conv2.weight f4 [4, 4, 2, 4]
000000 c9 8d 96 35 d7 95 ee a0 19 23 cd 32 82 f7 c6 ab
       1.1217136e-06 -4.0417924e-19 2.3881102e-08 -1.4137443e-12
000010 bc 8b 00 80 78 89 00 00 50 9b 00 80 67 93 00 00
       -5.0127e-41 4.9314e-41 -5.5716e-41 5.2878e-41
000020 55 2f ef 3a c3 c9 f8 ae 2d 24 39 2c 12 7b fb b4
       0.0018248359 -1.13135744e-10 2.6310163e-12 -4.684194e-07
000030 9f 8c 00 80 8b 8b 00 00 47 8b 00 00 68 89 00 80
       -5.0445e-41 5.0059e-41 4.9963e-41 -4.9292e-41
000040 05 06 f5 ba 47 fd 98 36 f8 f3 1d 37 37 00 ec b7
       -0.001869381 4.5594384e-06 9.414733e-06 -2.8133492e-05
000050 3f 8e 00 00 d1 93 00 00 59 92 00 80 76 8c 00 80
       5.1028e-41 5.3027e-41 -5.25e-41 -5.0388e-41
000060 8e 92 00 80 dd 8a 00 00 17 9b 00 80 cf 94 00 80
       -5.2574e-41 4.9815e-41 -5.5636e-41 -5.3382e-41
000070 25 a7 00 80 9d 9d 00 00 b3 a0 00 00 18 a6 00 00
       -5.996e-41 5.6541e-41 5.7648e-41 5.9583e-41
000080 08 d9 b2 3e 67 4b 50 3e 22 0f f8 3d 58 e2 c2 3e
       0.34931207 0.20341264 0.12112261 0.38063312
000090 86 6b ff 3a f0 67 82 3a 11 17 0f 3b 5a 0d 48 3b
       0.0019487 0.0009949189 0.0021833817 0.0030525536
0000a0 c2 66 9f 3e 4f a6 89 3e f8 15 00 bf 15 73 a7 3e
       0.31133085 0.26884696 -0.5003352 0.32704988
0000b0 75 d4 11 b9 4a 52 c2 b8 40 22 da b9 4e 74 dc b8
       -0.00013907424 -9.2659684e-05 -0.00041605718 -0.00010512081
0000c0 c1 26 3f 3e 50 c7 49 3c 09 60 26 bf c2 f5 14 3e
       0.18667127 0.012315586 -0.6499029 0.14546874
0000d0 dd 51 6a bf 4b d0 28 be af 7c db be 3f 19 a6 3c
       -0.91531163 -0.16485707 -0.42868564 0.02027571
0000e0 ba df 3e bd 95 52 13 bd e9 99 b6 3c 91 70 8e bd
       -0.04660008 -0.03596743 0.022290187 -0.06955064
0000f0 da 89 00 00 b6 89 00 80 47 8b 00 00 c1 8c 00 00
       4.9452e-41 -4.9401e-41 4.9963e-41 5.0493e-41
000100 08 0a 22 be 37 08 0d 3f cc ac 15 be 26 0c 87 be
       -0.15824139 0.5509066 -0.14616698 -0.26376456
000110 ab 6f 54 bb d2 c4 5b bb 20 ac 58 bb f8 50 61 bb
       -0.0032415192 -0.0033534062 -0.003306158 -0.0034380537
000120 4e a6 70 bd df e5 b0 bd 83 bc 57 be 85 58 d5 3e
       -0.05875235 -0.086375944 -0.21068005 0.41669098
000130 08 f9 58 3a 22 b2 6e 3a 79 ee 83 3a 79 77 91 3a
       0.00082768546 0.00091055233 0.0010065577 0.0011098228
000140 bd 14 5d 3e 59 22 dc 3e 38 62 8f be 7f 22 83 3e
       0.21589942 0.42994955 -0.28004622 0.25612256
000150 24 a3 07 bd 49 b1 eb 3e c5 c9 2a be 84 f9 ce bc
       -0.033114567 0.46033695 -0.16678531 -0.025265463
000160 80 06 3d 3d ac e4 60 3d e3 c8 35 3d b1 2a 6b 3d
       0.046148777 0.05490558 0.044381034 0.05741376
000170 5e 8a 00 00 e8 0f 16 8b d4 89 00 00 2e 8c 00 00
       4.9637e-41 -2.8900916e-32 4.9443e-41 5.0287e-41
000180 92 bf 8f 3e 21 13 7a bc 7d ac 21 3d 30 9a e2 bd
       0.28075844 -0.01526335 0.03947114 -0.11064565
000190 8c 98 00 00 e9 8b 00 00 1e 8c 00 80 4f 8a 00 00
       5.4724e-41 5.019e-41 -5.0265e-41 4.9616e-41
0001a0 a5 b4 39 3e a5 ad 7f 3e bd f9 8e 3d e0 99 8c be
       0.18135317 0.24968584 0.069812275 -0.27461147
0001b0 03 a6 00 00 7c 95 00 00 50 a8 00 80 77 8c 00 80
       5.9554e-41 5.3625e-41 -6.0379e-41 -5.0389e-41
0001c0 6c bf 63 bd a7 68 0a 3e 3e b4 84 bd 5d ab 21 bf
       -0.055602476 0.13516484 -0.06479691 -0.63152105
0001d0 15 6c b0 3d fd 2c e2 be 24 1f d3 bd cb a7 b2 be
       0.08614365 -0.44174948 -0.10308674 -0.3489364
0001e0 05 89 00 00 14 a4 00 00 9c 90 00 80 16 95 00 80
       4.9153e-41 5.886e-41 -5.1876e-41 -5.3482e-41
0001f0 cd a9 00 80 d6 8d 00 00 48 92 00 00 a8 93 00 80
       -6.0913e-41 5.0881e-41 5.2476e-41 -5.2969e-41

conv2.bias f4 [4]
000000 8f c5 8a bc dc e3 ef bc af 3b 85 3e 5d 8c 2e be
       -0.016939906 -0.029283457 0.26022097 -0.17045732

fc1.weight f4 [8, 20]
000000 58 9a 00 80 c4 89 00 80 e0 93 4f 0a f3 9e 8c 8e
       -5.5368e-41 -4.9421e-41 9.9945e-33 -3.4665727e-30
000010 93 89 00 00 ae 90 00 80 17 98 00 00 81 9c 00 00
       4.9352e-41 -5.1901e-41 5.456e-41 5.6143e-41
000020 19 9e 00 00 e1 9b 00 80 2a fa 27 be b0 54 4e 3d
       5.6715e-41 -5.5919e-41 -0.16404024 0.050373733
000030 12 40 87 3c c9 d7 43 be 9c e2 03 be e6 8a 00 80
       0.016510043 -0.19125284 -0.12879413 -4.9827e-41
000040 6a 91 00 00 fa 88 00 00 a6 8b 00 00 8d a7 00 00
       5.2165e-41 4.9138e-41 5.0096e-41 6.0106e-41
000050 bc 8a 00 80 48 95 00 80 df 89 00 00 93 91 00 00
       -4.9769e-41 -5.3552e-41 4.9459e-41 5.2222e-41
000060 b5 a0 00 00 c7 3f 42 1d c7 9e 60 8a db 89 00 00
       5.7651e-41 2.5708658e-21 -1.08150704e-32 4.9453e-41
000070 33 31 d3 29 cc a0 00 80 02 d5 af b7 99 7a c6 b5
       9.378817e-14 -5.7683e-41 -2.0960815e-05 -1.478783e-06
000080 95 0d 5d b7 f2 a5 75 b6 4d ea c7 b7 cd 8b 00 00
       -1.3175789e-05 -3.6604438e-06 -2.3831753e-05 5.0151e-41
000090 78 95 00 80 a7 93 00 80 0c 8b 00 80 b6 98 00 80
       -5.3619e-41 -5.2968e-41 -4.988e-41 -5.4782e-41
0000a0 c0 98 00 00 0c 89 00 00 e1 fb 24 24 7e 49 ac a1
       5.4796e-41 4.9163e-41 3.577518e-17 -1.1674627e-18
0000b0 c1 88 00 80 b7 cc 92 3e e8 30 8f be 92 a0 00 80
       -4.9058e-41 0.2867181 -0.27967 -5.7602e-41
0000c0 50 20 2d 3e bf c4 b7 b8 42 78 32 be d9 32 f6 3d
       0.16906857 -8.762767e-05 -0.17428687 0.12021417
0000d0 76 39 53 bd bd 56 11 3e 54 7b 1f bf 5d ca 08 96
       -0.05156847 0.14193244 -0.6229756 -1.1049847e-25
0000e0 83 d1 cc 1d 7d 3c a5 3e 02 2c d7 3d 2e 09 7a a2
       5.421498e-21 0.3227271 0.10506441 -3.3886178e-18
0000f0 2e a4 00 80 7b 8e 00 80 f1 88 00 80 fe 4c 32 30
       -5.8897e-41 -5.1112e-41 -4.9125e-41 6.4865435e-10
000100 16 8c 00 00 c1 75 19 bf 26 05 2e bf 32 bf 0f a1
       5.0253e-41 -0.59945303 -0.67976606 -4.870333e-19
000110 94 68 e5 be d8 92 86 be 63 dd f6 3e 45 e5 22 bc
       -0.4480635 -0.26283908 0.4821578 -0.009942357
000120 4e e3 91 3e 48 d1 a0 3d b9 d7 0b 3f bd 8f 30 b4
       0.28493732 0.07852417 0.5462604 -1.6443569e-07
000130 48 7e 97 b3 50 04 9c be 48 6c bc bd 6f 82 6c b8
       -7.054456e-08 -0.3047204 -0.092003405 -5.638826e-05
000140 26 92 00 80 5e 8a 00 80 7c f5 95 1c fb 8d 2e 37
       -5.2428e-41 -4.9637e-41 9.923449e-22 1.0404266e-05
000150 76 89 00 80 52 5f 17 bf 44 a7 39 bf aa df 04 b0
       -4.9312e-41 -0.5912982 -0.7252085 -4.8339166e-10
000160 35 53 fe be be 27 7b be 3e 48 e2 3e 22 17 2a bd
       -0.49672857 -0.24526879 0.4419574 -0.041525967
000170 22 72 79 3e 12 e4 a1 3e e3 cd ad 3e 0f 51 e8 b6
       0.24359944 0.31619316 0.33946142 -6.9235753e-06
000180 96 da 80 b6 b1 af 9e be 95 59 bd bd 77 60 df b9
       -3.840144e-06 -0.30993417 -0.09245602 -0.00042605746
000190 68 8d 00 80 52 8a 00 00 12 8a 00 80 69 8a 00 80
       -5.0727e-41 4.962e-41 -4.953e-41 -4.9652e-41
0001a0 a1 8d 00 80 29 96 00 80 c5 88 00 00 3f 8b 00 00
       -5.0807e-41 -5.3867e-41 4.9064e-41 4.9952e-41
0001b0 02 b1 e3 b5 12 8c 00 00 33 8b 95 bb 12 1b a2 bc
       -1.6964334e-06 5.0248e-41 -0.004563713 -0.019788299
0001c0 af 83 9e 3a 8d ce 4f 39 0b 1d 93 3c 5f 8a 00 80
       0.0012093688 0.00019818005 0.017958185 -4.9638e-41
0001d0 89 a4 00 80 bd 88 00 80 b3 95 00 00 87 92 00 00
       -5.9024e-41 -4.9052e-41 5.3702e-41 5.2564e-41
0001e0 9e 9c 00 00 5f 89 00 80 0d 8d 7d 04 90 d4 ef 87
       5.6184e-41 -4.928e-41 2.9804774e-36 -3.6085656e-34
0001f0 05 8a 00 00 ea 9c 00 00 28 8a 00 80 12 c9 01 00
       4.9512e-41 5.629e-41 -4.9561e-41 1.63966e-40
000200 0b 89 00 00 07 31 00 00 5d 17 e7 3c 72 75 14 be
       4.9162e-41 1.7588e-41 0.028209383 -0.14497927
000210 9c 76 d2 bd 95 d2 b9 bd 4a 8a 33 be 05 89 00 00
       -0.10276529 -0.090733685 -0.17533222 4.9153e-41
000220 5d 8b 00 00 70 8b 00 00 6c 8e 00 00 4e 8b 00 00
       4.9994e-41 5.0021e-41 5.1091e-41 4.9973e-41
000230 1d a5 00 80 07 8b 00 80 10 08 ba 21 bd 7f d9 b7
       -5.9231e-41 -4.9874e-41 1.2605984e-18 -2.5927899e-05
000240 41 89 00 00 6e aa 13 bf 67 70 20 bf a1 f4 3a b0
       4.9237e-41 -0.5768193 -0.6267151 -6.8014044e-10
000250 0c 2d ca be 7e fe 73 be c7 91 e1 3e 87 49 75 bd
       -0.39487493 -0.2382755 0.44056532 -0.059884574
000260 17 72 03 3f 1c 32 02 3e 9f e8 bc 3e 57 92 b3 b7
       0.5134596 0.12714428 0.36896226 -2.1406608e-05
000270 bf ee 51 b7 13 0e 9d be fa 5a bb bd 50 ea 41 ba
       -1.2512958e-05 -0.306748 -0.09148212 -0.0007397281

fc1.bias f4 [8]
000000 ba 93 e2 3d 83 72 70 b8 d3 9c a5 bd 5b a7 62 3e
       0.11063333 -5.7327106e-05 -0.080865525 0.22134154
000010 74 5f 8f 3e 13 17 82 bc 7e f0 e0 3d b9 4c c3 3e
       0.28002512 -0.015880143 0.1098337 0.38144472

fc2.weight f4 [1, 8]
000000 30 b8 fb 3d 3f 9e 5b b2 11 9f 27 3f e3 88 1b bf
       0.1229099 -1.2783459e-08 0.6547709 -0.6075575
000010 34 34 46 bf e2 16 8f 3c f1 9e e0 3d 5a 33 5f bf
       -0.77423406 0.017466966 0.10967816 -0.8718773
