saved_models/03_cnn_EGR1.pt (torch, 6407 bytes, 11 tensors)

conv0.weight f4 [4, 4, 1, 1]
00000000: ab50 3a3e b023 e6be 4e7e 13be de53 863e
00000010: e809 8f3e 5ec7 983e 02d0 69be fe2d 2f3f
00000020: b822 6e3f 6c7b c93d 77ef dc3e 1a8b d43e
00000030: 9529 e73e 83d0 8abd ae00 b23d 7982 27bf
0.18194835 -0.44949102 -0.1440365 0.2623586 0.27937245 0.29839605 -0.22833255 0.68429554
0.93021727 0.09837994 0.43151447 0.41512376 0.45148912 -0.06778052 0.08691536 -0.6543346

conv0.bias f4 [4]
00000000: 644b 043f 7ce2 52bd aa98 f1be bebc a53e
0.51677537 -0.051485524 -0.47186786 0.3237056

conv1_M.weight f4 [4, 4, 4, 1]
00000000: 9ae7 ecbd 0dfe 973d c962 2b3d 4bb2 2f3e
00000010: 8d68 febe a263 c8be 96be 593b f3fc f6be
00000020: 5e69 39bf b5bb dfbe 0141 a1be 2f0a 22bf
00000030: 5610 9c3e b525 8a3e 815e c53b e6fa 403f
00000040: c5e9 443e acd3 673e da28 4e3e 0ea6 ef3c
00000050: e6b3 4f3d 90ba b4be 06df 053f 8d44 b03e
00000060: fad5 893e 6688 aebe 022e 3abe 2f7d 72bd
00000070: 18a3 133c db18 813e 3c08 acbe 2fe4 3d3d
00000080: d551 75bd de17 833e cffb 813e e4cb 983e
00000090: 36c0 8dbd d564 3ebd 4451 9d3e 2be6 243d
000000a0: d910 453c 066b d3be 3e98 a3bd 1afc fbbe
000000b0: d8eb 213f 2d41 923e 791e 963e 52cc 88be
000000c0: abc7 c73d 38a7 9b3d 49c6 593e 47d8 cf3d
000000d0: 14f6 fabd 69dc 3dbe 717c 97bd 3be4 72be
000000e0: cd5e 0abf 541c abbe 5e30 29bf a47f 00bf
000000f0: 15f8 343f 329d 613e 9d49 313e 6133 e63d
-0.11567612 0.07421503 0.041842256 0.17157857 -0.4968914 -0.39138514 0.003322517 -0.4823986
-0.724264 -0.43697897 -0.31494907 -0.6329679 0.30481213 0.26981893 0.0060232286 0.7538284
0.19229801 0.2263934 0.20132771 0.029253986 0.050708674 -0.35298586 0.5229343 0.344273
0.26921064 -0.3408844 -0.18181613 -0.059201416 0.009011053 0.25214276 -0.33600032 0.04636019
-0.059892494 0.25604147 0.25387427 0.29843056 -0.06921427 -0.04648288 0.30726063 0.040258568
0.012027943 -0.4129259 -0.07988022 -0.49215776 0.63250494 0.2856535 0.29320124 -0.26718384
0.097548805 0.07600254 0.21267046 0.101486735 -0.12253967 -0.18541111 -0.07396782 -0.23719876
-0.54050905 -0.3342005 -0.6608943 -0.50194764 0.70691043 0.22032622 0.17313237 0.112402685

conv1_M.bias f4 [4]
00000000: 4bf0 ae3e ac9e d63d 580b a53e ed90 423e
0.34167704 0.10479483 0.32235217 0.19000597

conv1_m.weight f4 [4, 4, 3, 1]
00000000: 816b 59bc 1b1e 90bc 08e1 6ebc 65b6 babb
00000010: 14f1 2dbb 1322 ddbb 442e d03b f4ad 293a
00000020: 0453 4b38 a236 f8b7 f951 6ebb 8494 3fbb
00000030: 7b02 00bd 45dc debc 2d9b e0bc b15b f6bc
00000040: 4618 7e3c 1724 32bc 9051 913c 38c5 113c
00000050: 7d51 573b 672a 063b ee42 10bd eb4f ffbc
00000060: 3e4b 07bd 8e6d 05bd 03cd 13bd 8789 b9bc
00000070: ea77 2a3c c756 bdbc e82a 2a3c 3586 e53b
00000080: 3eb7 a23b e0ff 933b e11f a9bc 5c7e 5239
00000090: cdfd 8bb8 7f52 5bb4 0679 60b8 4636 04b3
000000a0: f3de ca2b 3b9b 5eb1 a417 181e 93bb 3507
000000b0: 2cc3 6795 1913 5a0c 62e7 11b3 beee 1308
-0.01327026 -0.01759248 -0.014580019 -0.0056980127 -0.00265414 -0.0067484467 0.0063531715 0.00064727594
4.8476286e-05 -2.9589344e-05 -0.0036364777 -0.002923281 -0.031252366 -0.027204642 -0.027417744 -0.030073019
0.015508717 -0.010872862 0.017739087 0.008897118 0.0032854967 0.002047205 -0.03522008 -0.031166038
-0.03303074 -0.032575183 -0.036084186 -0.022648586 0.010404566 -0.023112668 0.010386206 0.007004524
0.004965692 0.0045165867 -0.020645084 0.00020074233 -6.6753106e-05 -2.0425976e-07 -5.3518474e-05 -3.0783006e-08
1.4414844e-12 -3.239349e-09 8.051702e-21 1.367205e-34 -4.6804042e-26 1.6799856e-31 -3.3970885e-08 4.4516844e-34

conv1_m.bias f4 [4]
00000000: b981 9dbc cfab eebc 50d3 1bbd 0afb fbb8
-0.019226896 -0.02913466 -0.03804332 -0.00012015372

conv2.weight f4 [4, 4, 2, 4]
00000000: bbf3 043f d143 273f fad1 da3e 079a 343e
00000010: 424c 643c 4d33 9b3c e489 8e3c c263 cb3c
00000020: 58c2 ea3e 5ba8 0a3e 71fd 96bb 897d 093e
00000030: 0bed 86bc 0618 18bd e563 b1bc e569 28bd
00000040: ed4a aa3d 712c ac3e 8872 a73d 20cf ba3d
00000050: 8b2f c03c 84aa 323d 5e60 133d 5915 343d
00000060: 66d9 ac3c dd22 053f 304e cb3d d6cf c83d
00000070: 39dd 82b4 420c 08ba a576 00b6 cbaf efb9
00000080: 350a da37 d6a7 32b5 0ba5 b0b8 0212 53b4
00000090: 74cb 1182 4fcd 5601 d936 6602 504e 2a82
000000a0: d309 2538 c514 ccb0 d745 60b9 cd58 6ab4
000000b0: 8056 b581 b4fb fa00 e740 1480 f378 4b80
000000c0: c8ff 11bb fbc9 19bb af25 44bb dfc7 2bbb
000000d0: 9537 cb81 8724 b682 bdb5 6900 067f da00
000000e0: 6ab1 38b0 6537 0720 ed6f 0ea7 4696 1da9
000000f0: 663d f082 f924 4b00 20e2 7e02 3183 2381
00000100: 5258 ef3e ebaa 363e a748 b13e 86dc e7be
00000110: 2184 491f 61f8 91b4 976c 4ab5 65f5 8cb5
00000120: b60b 11be 47bb 85be df44 183e 4467 84bd
00000130: 5bdf 023c e9d8 9d3b ed5e 913b ad3a 473b
00000140: 0aa3 87be b481 583e f9df 203e af30 b8be
00000150: 80c0 68bb edf9 c93c 9dd5 183c 5194 093d
00000160: 2377 a73e 26e6 863e 8a51 a53e 46e3 e5be
00000170: 9356 1e85 272a bbb2 a38d b5b3 ef29 b6b3
00000180: 9a00 863a 7d1d 0abf 8de0 a039 e61f 12be
00000190: c3ee 2bbc a602 40bc 379a 94bb cd5a 6bbc
000001a0: 6b4f 6f3e e6d5 96be ed34 59bb 6ddd 733d
000001b0: c00f c23c f6e0 023d ffd9 493c 9d73 d73c
000001c0: 8ad8 0e3e 3553 e0be 95ee 973e 63fb 2abd
000001d0: a183 0dbd 7501 36bd f402 8c39 ab75 30bd
000001e0: 2c54 a4bd 057c 21bf 7319 9d3e 6127 9cbe
000001f0: 2550 4f04 5d2a a484 865e e082 f151 2205
0.51934403 0.65337855 0.42738324 0.17636882 0.013934197 0.01894536 0.017399736 0.024827842
0.45851398 0.13540785 -0.0046078493 0.13426794 -0.016470453 -0.037132286 -0.021654079 -0.041116614
0.08315072 0.33627656 0.08176142 0.09121537 0.02346017 0.043619648 0.035980575 0.04396567
0.021099757 0.5200632 0.099270225 0.098052666 -2.4375348e-07 -0.0005189815 -1.9142547e-06 -0.00045716608
2.5992378e-05 -6.65544e-07 -8.4230756e-05 -1.9657458e-07 -1.0711306e-37 3.9452894e-38 1.6913472e-37 -1.2512102e-37
3.9348215e-05 -1.4848857e-09 -0.00021388322 -2.1825254e-07 -6.661302e-38 2.3049168e-38 -1.859992e-39 -6.93105e-39
-0.0022277702 -0.0023466337 -0.0029929688 -0.0026211662 -7.465018e-38 -2.6763462e-37 9.707923e-39 2.0065706e-38
-6.719093e-10 1.1453273e-19 -1.9767134e-15 -3.4991344e-14 -3.5300071e-37 6.900926e-39 1.8725868e-37 -3.0032497e-38
0.4674707 0.17838638 0.34625742 -0.45285434 4.26727e-20 -2.7189074e-07 -7.5408883e-07 -1.0502232e-06
-0.14164624 -0.26119444 0.14870022 -0.06465009 0.007987822 0.0048171175 0.004436365 0.0030399964
-0.26491576 0.21143228 0.15710439 -0.35974643 -0.003551513 0.024655307 0.009328273 0.03358871
0.32708082 0.26347464 0.32288772 -0.44899958 -7.4450255e-36 -2.1788834e-08 -8.454233e-08 -8.482663e-08
0.0010223568 -0.53951246 0.00030684881 -0.14269981 -0.010493937 -0.011719381 -0.0045349854 -0.01436491
0.2337014 -0.29460067 -0.0033143118 0.05953734 0.02368915 0.03195282 0.012320041 0.026300246
0.1394979 -0.43813482 0.2967421 -0.041743647 -0.03454936 -0.044434983 0.0002670508 -0.043080967
-0.08023867 -0.63079864 0.3068348 -0.30498794 2.4369534e-36 -3.859512e-36 -3.2968096e-37 7.632254e-36

conv2.bias f4 [4]
00000000: 63e1 83bc 37b8 cabb cb0f b23d b1fa b33d
-0.016098684 -0.006186511 0.086944185 0.0878805

fc1.weight f4 [8, 16]
00000000: aa05 1abc 0309 87be 37c8 d3bd 64a5 78be
00000010: b0f4 1b03 84fd 2300 e20f 2402 4c1c 4501
00000020: 69e8 84b9 2e7e 4eb1 9642 3bb8 26f3 103b
00000030: 4075 1583 2d7f 7804 1923 9a80 17f3 6683
00000040: 1aed 2c1a 8939 9c91 b74f 458a 6a73 3b98
00000050: 0a25 7e05 7bbf 8583 b2dc ce84 2223 f381
00000060: 81e8 dd02 ab33 4480 28c5 3e04 ccee 1b00
00000070: b2e2 c001 d058 1300 91a8 3e04 4c51 c701
00000080: d553 99bc 7e45 f7bd 929f e8bd b043 323d
00000090: ebae cd01 b608 6d02 6d1b d503 3efe e381
000000a0: 561e 2e3b e48d efb6 fda7 ad3a 7326 0abb
000000b0: 34fa 49bc 6f89 93ba 08a4 bab9 079e 1306
000000c0: 5ddc adbd bf6b 1c3e 8c52 d13d d7f7 d43e
000000d0: 2738 caaf 9bb3 eaaf bb9d 729b 84ec 01aa
000000e0: ae3f 93bd 2f27 203f 1558 c03e 848a 833e
000000f0: 0971 7fbc 7876 a9be 6b67 723e fe82 8b3c
00000100: e152 0dbc f897 8b3d f0bc 753e 0894 253e
00000110: bd1a e3b7 237d 2bb7 1449 6bb1 a632 8634
00000120: 13dd 19be fdfb 023f b082 183f ce0f 5f3e
00000130: 2eb7 f73c b909 82be 58f1 8b3e a5e0 76bd
00000140: 3bde b13c 1982 37bd 3f38 993a e731 3dbc
00000150: e20d 7381 61ae 8381 9928 b402 97f6 b400
00000160: 1cdd 28b9 9db0 18a3 2a30 8db2 80c2 1d35
00000170: cf8c 1223 c935 8cb8 5e49 bb2a 7720 4f29
00000180: 08a9 16be f80a 193d 4247 79bf 682f 10be
00000190: 2a8e 6c82 6d94 3d84 d030 0502 5ff3 d681
000001a0: a9ae e3bc 5b02 3bbf 31fd 03bf 0844 2ebd
000001b0: f4e0 153e 3fda d53e c7c5 90be cbe4 4a3e
000001c0: 0f69 913e 07f3 823e e5c4 f43e 021a 9f3e
000001d0: 4bf3 a1b8 0861 cab7 2363 e9b2 0212 d6b6
000001e0: 6256 90bd edfa 273f ef07 0a3f 600f 843e
000001f0: 41bf 1abe 1183 b3be ee09 513e 4dba 80be
-0.0094007645 -0.26374063 -0.10340922 -0.24281842 4.5831294e-37 3.305187e-39 1.2053375e-37 3.6203487e-38
-0.0002535016 -3.004867e-09 -4.4646287e-05 0.0022117584 -4.392176e-37 2.9210656e-36 -1.4155257e-38 -6.786998e-37
3.5760295e-23 -2.464792e-28 -9.500198e-33 -2.4227453e-24 1.19498256e-35 -7.860999e-37 -4.8633044e-36 -8.9314515e-38
3.2606482e-37 -6.263349e-39 2.2424922e-36 2.565223e-39 7.0854953e-38 1.776734e-39 2.2411795e-36 7.321771e-38
-0.018716732 -0.120738015 -0.113585606 0.043521583 7.55561e-38 1.741451e-37 1.25253115e-36 -8.375145e-38
0.0026568375 -7.1392733e-06 0.0013248917 -0.0021080046 -0.0123277195 -0.0011256168 -0.00035598897 2.7763727e-35
-0.084892966 0.15275477 0.10220823 0.41595337 -3.6783485e-10 -4.269197e-10 -2.0068736e-22 -1.153956e-13
-0.0718988 0.6255979 0.375672 0.25691617 -0.0155909145 -0.33098197 0.23672263 0.017030235
-0.008625717 0.06816095 0.23997855 0.1616975 -2.707296e-05 -1.022153e-05 -3.423854e-09 2.4996297e-07
-0.1502574 0.51165754 0.59574413 0.21783373 0.030238714 -0.25398043 0.27332568 -0.06027283
0.021712413 -0.044801805 0.0011689736 -0.011547542 -4.4642012e-38 -4.837202e-38 2.6471925e-37 1.6618849e-38
-0.00016104098 -8.277336e-18 -1.6436463e-08 5.877009e-07 7.944493e-18 -6.6857385e-05 3.3268782e-13 4.5991392e-14
-0.14712918 0.037363976 -0.97374356 -0.14080584 -1.7379341e-37 -2.2284997e-36 9.785305e-38 -7.8960405e-38
-0.027793245 -0.7305047 -0.51558214 -0.04254535 0.14636594 0.4176807 -0.28275892 0.1981384
0.28400466 0.2557604 0.4780647 0.3107453 -7.722395e-05 -2.412546e-05 -2.7169852e-08 -6.3797934e-06
-0.07047726 0.6561726 0.53918356 0.2579298 -0.1511202 -0.35060933 0.20413944 -0.25142136

fc1.bias f4 [8]
00000000: 592d 283e da60 d8a3 8cdd d1bc 6697 763d
00000010: 34de 453e e821 c7bc 9f55 2f3e a5a8 853e
0.16423549 -2.3459785e-17 -0.025618337 0.06020298 0.19323045 -0.02430816 0.17122506 0.26105228

fc2.weight f4 [1, 8]
00000000: f528 1a3e eaae a306 d911 5a3e df4a d8be
00000010: 452f 03bf 2aea 763a c40c 143f a250 0abf
0.15054686 6.15708e-35 0.21295871 -0.42244622 -0.51244 0.00094190484 0.5783198 -0.54029286
