models/02_cnn_ets1.pt (torch, 6663 bytes, 11 tensors)

conv0.weight f4 [4, 4, 1, 1]
000000 9e ee 16 3f d6 be 0c 3f 31 6d 50 3e 60 e5 fd 3e
       0.5895785 0.5497869 0.20354153 0.49589062
000010 50 e9 1d be d0 38 c8 3e 46 47 0b bf f7 f0 25 3f
       -0.15421033 0.39105844 -0.5440563 0.6482081
000020 76 4d c9 3e 42 6c 8a bf 6b 67 22 3f 26 73 2b 3e
       0.3931691 -1.0814288 0.63439053 0.16743144
000030 83 c8 73 3f 9c 78 e1 be f5 6b 5a 3f a6 47 0c be
       0.9522783 -0.4403733 0.8532098 -0.13699207

conv0.bias f4 [4]
000000 90 b9 0d 3f 90 6b 6f 3e f2 3c d1 be 05 32 6f 3e
       0.5536127 0.23380876 -0.4086681 0.23358925

conv1_M.weight f4 [4, 4, 4, 1]
000000 18 50 4e 3b fb e7 3e 3d b5 e5 fa bc 0a 1f 7c 3e
       0.0031480845 0.046607953 -0.030627111 0.24621215
000010 b3 21 18 be 2d 06 da bd 26 3c 05 bd 5e e2 b7 bd
       -0.14856605 -0.10645709 -0.032528065 -0.08978723
000020 9f 53 24 3e 9a f1 a8 bc 4c ae e8 3e d9 21 80 be
       0.16047524 -0.020623017 0.45445478 -0.25025824
000030 10 ab f2 3e eb 78 81 3e f9 c7 ad 3c 32 38 47 3e
       0.47396135 0.25287566 0.021213518 0.1945503
000040 e2 96 72 3e df 8e 51 3e ca 41 a2 3e 50 52 02 3e
       0.2369037 0.20464657 0.31690818 0.12726712
000050 c2 36 ba 3d 88 8c 0f bf bf c7 1c 3f 0b 94 d4 3e
       0.090924755 -0.5607381 0.6124229 0.41519198
000060 40 db 89 3e be ad b6 3e b3 5a a7 bd b9 99 25 bf
       0.26925087 0.3567943 -0.081715964 -0.6468769
000070 45 82 21 3f da ee d2 3e cf 85 8b be 4b 22 8a bd
       0.630894 0.41197854 -0.27250525 -0.06744822
000080 2b 42 31 bd a6 ab 8d 3e c6 58 5f 3e 84 79 6b 3e
       -0.043275993 0.2767002 0.21811208 0.22995573
000090 26 d4 42 3e 56 2f 8f bd 35 7c b9 3e c6 7e ab bd
       0.1902624 -0.069914505 0.36227575 -0.083737895
0000a0 e6 71 a9 3c 61 94 25 3e 76 eb 92 3e 2a 5b ee be
       0.020684194 0.16169883 0.28695267 -0.46553928
0000b0 1e 0b a2 3e 1f 21 74 3e c0 6a 9f 3e 52 d6 c1 bd
       0.31649107 0.2384076 0.3113613 -0.094647065
0000c0 0f f6 90 bc 0e e4 67 bc fc 43 5f bc 58 3c 8e bc
       -0.017695455 -0.014153494 -0.013627049 -0.017362759
0000d0 1e ba 05 bc 91 00 60 bb 94 92 2d bb d7 e1 51 bb
       -0.00816205 -0.0034180025 -0.0026485072 -0.003202548
0000e0 c9 51 25 3b 59 cc 80 38 40 2e 48 38 b1 b9 8b 3b
       0.002522575 6.141578e-05 4.772679e-05 0.0042640795
0000f0 2e 4a 9d ba 24 5d 9d bb 0f 83 ab bb a7 80 4d bb
       -0.0012000257 -0.004802363 -0.0052341293 -0.00313572

conv1_M.bias f4 [4]
000000 98 02 57 3e cd 31 14 3e c1 ca 87 3e 03 4f 7d bc
       0.20997083 0.14472122 0.26521876 -0.015460732

conv1_m.weight f4 [4, 4, 3, 1]
000000 b5 48 0e ba 04 20 48 ba be c7 70 ba ad 3d 3a b8
       -0.00054277043 -0.0007634165 -0.00091850373 -4.4403296e-05
000010 36 b5 8a b1 c9 48 84 b8 01 d3 f4 32 52 8d 2c 99
       -4.03693e-09 -6.307808e-05 2.8501292e-08 -8.920731e-24
000020 16 fa d4 2d cc cc 2f af 9f 05 63 b8 c3 34 1d b5
       2.421267e-11 -1.5988916e-10 -5.4126253e-05 -5.8563836e-07
000030 61 99 14 bd f3 d2 14 bd d0 3d 13 bd 8b b2 02 bd
       -0.036279086 -0.03633399 -0.03594762 -0.031908553
000040 c3 7d 55 bc a9 25 da bc 45 85 ac 3c 89 ec c4 3a
       -0.013030472 -0.026629286 0.021059642 0.0015024106
000050 c6 a0 27 3c d1 8e 35 bc 03 bd 06 bd 3f a7 d3 bc
       0.0102312025 -0.011081413 -0.0328951 -0.025836585
000060 dd e2 6b bd 9e ba 81 bd 10 3c 84 bd 58 aa 57 bd
       -0.0575894 -0.063344225 -0.064567685 -0.052652687
000070 82 b8 88 bd fb db 84 bd 57 a2 51 3d a3 00 41 b9
       -0.06675817 -0.064872704 0.05118021 -0.00018406152
000080 57 64 21 3d 2c 70 0d bd 7a 62 52 bd b2 e5 43 bd
       0.039402332 -0.034530804 -0.051363446 -0.047826476
000090 d1 ed a8 3a 9d b7 95 3e ec 1c 55 3e 92 b9 05 be
       0.0012888258 0.29241648 0.20811814 -0.1305907
0000a0 bc 55 42 3f d5 f8 9e be db 38 4b be b2 fa 60 bf
       0.7591207 -0.3104922 -0.19845907 -0.8788253
0000b0 68 60 43 3e de 1b a7 3e a7 08 0f bc 04 be 25 3f
       0.19079745 0.32638448 -0.00873009 0.64743066

conv1_m.bias f4 [4]
000000 22 0f 11 ba d9 15 1b bd 7e 78 7e bd 67 01 90 3e
       -0.0005533566 -0.037862632 -0.06212663 0.2812607

conv2.weight f4 [4, 4, 2, 4]
000000 87 26 36 3e 49 11 07 39 72 c0 6f 3e 42 45 a6 bb
       0.17788135 0.00012881042 0.23413256 -0.005074174
000010 53 46 c8 39 b6 4c e0 39 e4 97 be 39 b7 b6 ec 39
       0.00038199368 0.00042781763 0.0003635279 0.0004514956
000020 07 97 36 3f ae dc 91 bc 49 04 de ba 49 01 47 3e
       0.713242 -0.017805424 -0.0016938533 0.19434084
000030 81 0c 23 bd 59 4a 26 bd 43 80 23 bd 28 d5 25 bd
       -0.039806847 -0.040598247 -0.03991724 -0.040486485
000040 56 0b 8e 3e 07 84 0d 3e 33 6c e8 3d d1 91 fe 3b
       0.27743024 0.13819896 0.11348762 0.0077688475
000050 48 c7 79 3d 65 16 6a 3d 6b 6b 79 3d 57 76 7b 3d
       0.060981065 0.057150263 0.060893457 0.061392155
000060 e1 eb b3 3c 07 96 b2 3c f4 cc b0 3c e7 f3 b4 3c
       0.021963062 0.021800054 0.021582104 0.022088958
000070 69 da 80 3e b8 f0 cf be 62 bf 02 3f ef 57 f8 bd
       0.25166634 -0.4061334 0.51073277 -0.12126147
000080 96 48 21 ba 08 03 a9 b9 35 9d 45 ba 57 79 8e b9
       -0.0006152479 -0.0003223645 -0.0007538379 -0.00027174756
000090 26 9c 09 09 6c 05 2c 08 08 84 ae 08 fb 84 1f 09
       1.6564196e-33 5.176574e-34 1.05032845e-33 1.9201456e-33
0000a0 09 bb eb ba 7b c5 08 bb 0b 66 d3 ba d6 49 19 bb
       -0.0017984818 -0.002086966 -0.0016128434 -0.0023389957
0000b0 b6 af f0 88 bd 25 93 07 b3 78 95 88 ff af 05 88
       -1.4485784e-33 2.2140282e-34 -8.995988e-34 -4.0230114e-34
0000c0 61 b5 49 bb 0d cc 50 bb 97 59 66 bb d5 c8 21 bb
       -0.0030778276 -0.0031859905 -0.0035148615 -0.0024686356
0000d0 b5 85 ad 88 d4 d5 50 89 b2 bb 69 87 e7 de 05 08
       -1.0443493e-33 -2.513763e-33 -1.758413e-34 4.028525e-34
0000e0 20 b5 11 06 c1 36 26 86 66 31 a5 07 5a 86 3a 88
       2.740454e-35 -3.1261357e-35 2.4855474e-34 -5.613027e-34
0000f0 13 ca 1a 8a 25 cd 85 0a 55 4f 00 8b 2b 9c 80 0b
       -7.452836e-33 1.2884601e-32 -2.4711586e-32 4.953878e-32
000100 1f 55 a9 3e eb 40 9c 3d 99 23 29 bb 86 5c 90 bd
       0.33072755 0.076295696 -0.0025808571 -0.070488974
000110 4f ab 17 39 4d 14 a2 39 ad ee 26 39 1e a8 82 39
       0.000144643 0.00030914173 0.00015919907 0.0002492079
000120 e2 34 86 3e c0 33 99 bd 3c d0 af be 65 bc 05 3f
       0.2621222 -0.07480574 -0.34338558 0.5224059
000130 22 85 16 bd c5 66 25 bd da 4a 1c bd de 43 24 bd
       -0.03674806 -0.04038121 -0.03815732 -0.040103786
000140 e5 66 36 3e 3a b6 9c 3e d5 8f b6 3d 15 1a 5e 3e
       0.17812689 0.30607778 0.089141525 0.21689637
000150 4f 6d 8d 3d 5f 80 91 3d f5 5f 8f 3d c5 92 92 3d
       0.069056146 0.07104563 0.07000724 0.071569
000160 ff e4 9a 3c 09 84 a3 3c d7 7d 9e 3c c3 5d a3 3c
       0.018908022 0.01996042 0.019347114 0.01994217
000170 8b 06 d7 be 17 d9 79 bf 79 be 93 be 11 f4 45 3e
       -0.4199718 -0.9759688 -0.28856257 0.19331385
000180 48 6a 2a b5 6f ad 0b b6 b6 c8 8e b8 c9 5f 36 b5
       -6.3484595e-07 -2.0813566e-06 -6.808473e-05 -6.793967e-07
000190 dd ae f3 05 5c 0c 1d 08 6d 51 d6 07 48 23 0a 09
       2.2915845e-35 4.7259997e-34 3.2247e-34 1.6627735e-33
0001a0 0e a2 14 b3 c6 c2 c5 bb 85 cc 8c a0 98 06 f8 b2
       -3.4606323e-08 -0.0060351817 -2.3852262e-19 -2.8873998e-08
0001b0 79 2a a4 87 05 af 02 89 f6 d1 06 88 f1 85 3e 89
       -2.470094e-34 -1.5730475e-33 -4.0570966e-34 -2.2933397e-33
0001c0 56 ee 50 ba f5 c5 8d bb 4e 03 4d ba 6e 04 55 ba
       -0.0007970085 -0.004326577 -0.0007820622 -0.0008125965
0001d0 5e 3d dd 88 1c a3 4e 09 cf 64 db 88 f9 a9 13 08
       -1.3315381e-33 2.4873042e-33 -1.3204283e-33 4.4436005e-34
0001e0 a7 9c 26 08 c5 e7 8d 89 f7 a5 3a 89 fe ed e2 08
       5.013795e-34 -3.416247e-33 -2.2466972e-33 1.3657832e-33
0001f0 74 2e a6 bb 95 3a 27 a2 88 33 36 21 1f 53 a7 bb
       -0.0050714556 -2.2663733e-18 6.17322e-19 -0.0051063444

conv2.bias f4 [4]
000000 7f 34 59 3d 4e 8d 0e ba 9d 79 84 3e 29 05 48 b8
       0.05302858 -0.0005437926 0.25874034 -4.768852e-05

fc1.weight f4 [8, 24]
000000 bc c1 b0 3e 67 d2 96 3e f4 8e 92 3e 75 34 e9 3d
       0.34522808 0.294574 0.2862469 0.113869585
000010 85 75 88 be 8b 06 c1 3e 92 28 98 3b b7 18 8f 3a
       -0.2665216 0.37700304 0.0046435082 0.00109174
000020 34 bd 96 3b a2 e7 a5 3b c2 00 85 3b f3 7c a0 3b
       0.0046001915 0.005063013 0.004058928 0.0048977076
000030 c7 30 09 3c 42 28 4a 3e 5a 32 09 be 1e 55 14 3f
       0.008373446 0.1974192 -0.13398114 0.5794238
000040 7f e7 f8 3e 85 08 b1 3e 56 0e 22 2f 60 34 38 2b
       0.48614118 0.34576812 1.4738907e-10 6.5442617e-13
000050 94 43 6e 9b d9 5b 7d 1d 11 70 60 1d 3a 1d e9 1d
       -1.9708734e-22 3.3531755e-21 2.970409e-21 6.1704806e-21
000060 22 be 02 bb c2 a1 c7 ba b8 f7 9e ba 45 db ef ba
       -0.0019949754 -0.0015230703 -0.0012128269 -0.00182996
000070 9c a2 a7 ba 98 0a af ba 2b 58 84 06 14 e8 94 07
       -0.001278955 -0.0013354598 4.978243e-35 2.2404968e-34
000080 2a 98 90 09 db 54 82 89 23 b0 a7 87 f2 f2 7b 08
       3.4809833e-33 -3.137616e-33 -2.523089e-34 7.5818146e-34
000090 7d e7 d9 b9 ba 76 e8 b9 a5 d4 b6 38 aa cf 5d ba
       -0.00041561938 -0.00044338946 8.7180444e-05 -0.00084614253
0000a0 7b 09 43 ba d3 4d 95 b9 6a 76 8e 0a fe 6a ce 87
       -0.00074400724 -0.00028477478 1.3718645e-32 -3.105832e-34
0000b0 51 9c a3 08 2d dc 20 8a f2 f0 7a 07 e1 e0 9e 87
       9.8469555e-34 -7.74513e-33 1.8878717e-34 -2.390537e-34
0000c0 76 3c 98 b9 1f 09 90 b9 19 6c 4d b9 3f 65 8f b9
       -0.00029036746 -0.00027472616 -0.00019590593 -0.0002735052
0000d0 f7 3a 68 b9 e7 c9 93 b9 6a 98 1d 09 04 57 de 09
       -0.0002214721 -0.00028188454 1.8969852e-33 5.3526385e-33
0000e0 91 ae e4 09 c4 cc d2 87 27 ca 44 89 be 35 70 87
       5.5053165e-33 -3.1717639e-34 -2.3687693e-33 -1.8071387e-34
0000f0 71 2c e2 b7 a8 d0 40 b8 fc e0 55 b7 80 96 5e b8
       -2.6961994e-05 -4.5970693e-05 -1.2748173e-05 -5.306909e-05
000100 f0 27 20 b8 16 9c bc b7 e1 f0 98 07 56 7c 04 87
       -3.8184167e-05 -2.248403e-05 2.3011994e-34 -9.967115e-35
000110 f2 62 90 87 46 bc e8 07 b3 82 07 89 d3 cb 22 0a
       -2.1724867e-34 3.5018137e-34 -1.6311488e-33 7.838351e-33
000120 20 09 7a 3b 50 84 03 be ee a9 6f 3c 2b ee 22 bc
       0.0038152412 -0.12843442 0.014627917 -0.009944479
000130 be 69 c6 be 7e 5e 54 3e eb b9 23 36 f0 84 0f 36
       -0.3875255 0.20739171 2.4397111e-06 2.138604e-06
000140 c3 40 ca 35 a7 b9 c4 35 18 84 7d 34 55 12 fa 35
       1.5069021e-06 1.465717e-06 2.3610517e-07 1.8631787e-06
000150 25 c0 bd bd fa 56 0e 3e 44 d0 01 be ad 64 cd 3e
       -0.09265164 0.13900366 -0.12677103 0.40115872
000160 d4 5d 3e 3e 1b 39 8f 3e c6 81 f2 1e cd 34 8f 9e
       0.1859048 0.27973256 2.567642e-20 -1.5162552e-20
000170 da fe d5 9a 7e b4 a8 9d ba 5f 6c 1d 16 2b 1e 1d
       -8.850647e-23 -4.4655854e-21 3.128383e-21 2.09334e-21
000180 07 d7 6b be 05 72 98 bd c4 d3 8b 3d 73 da 85 3c
       -0.23031245 -0.074436225 0.068275005 0.016339516
000190 ca 4a 29 be f9 ef c3 bd fc 66 b7 09 3d 64 12 09
       -0.16532436 -0.095672555 4.4152494e-33 1.7621243e-33
0001a0 85 b4 1a 88 0a 0e 07 09 f8 09 12 0a 0d 28 cf 88
       -4.655489e-34 1.6256635e-33 7.031519e-33 -1.2467775e-33
0001b0 66 95 ed 3c 20 4a 56 be 10 a6 62 bc 11 a7 76 3d
       0.029001903 -0.20926714 -0.013833538 0.06021792
0001c0 0c 17 9f bd 3f 79 81 3d fe e3 bb 09 fc 69 ff 06
       -0.07768068 0.06321954 4.5233015e-33 9.607607e-35
0001d0 ca 21 5b 88 a2 5e a1 87 b1 68 2d 88 dd 16 d1 88
       -6.5942634e-34 -2.4280208e-34 -5.218336e-34 -1.2584105e-33
0001e0 7f a0 4a 3d f6 a6 b5 3c c5 f8 4e 3a d0 f4 16 be
       0.049469467 0.02217434 0.0007895346 -0.14741826
0001f0 98 09 1b be 0c ba 03 bd 24 8e a0 87 8e 79 23 88
       -0.15140378 -0.03215985 -2.4157667e-34 -4.9193915e-34
000200 03 d7 56 88 8f a4 5c 89 b3 59 64 87 f5 1d 7b 86
       -6.4651028e-34 -2.6558912e-33 -1.7179174e-34 -4.7229862e-35
000210 75 1e b2 bd e9 36 64 be 99 f9 2c be 8a 1d 0c be
       -0.086972155 -0.22286572 -0.16892089 -0.13683143
000220 97 41 13 be cb 23 ec bb 23 b9 47 08 ae 7b cb 88
       -0.1438049 -0.0072064153 6.010201e-34 -1.2246695e-33
000230 db bd a6 0a db 24 5e 08 a8 6b 2f 89 71 f0 f8 08
       1.6056634e-32 6.684902e-34 -2.1115478e-33 1.4982485e-33
000240 db e8 a8 bd 3b 51 aa ba 34 da 72 bd e9 16 06 be
       -0.08247539 -0.0012994179 -0.059290126 -0.13094677
000250 23 cb 1c bd 01 71 93 bd bd 4a 44 89 f3 34 05 09
       -0.038279664 -0.07199288 -2.3627784e-33 1.603419e-33
000260 06 e9 dd 89 7c de 9f 07 10 6d 08 08 84 81 71 0a
       -5.342295e-33 2.4054426e-34 4.1054214e-34 1.1628087e-32
000270 4c 6d 95 bd e2 2e af bc 53 ac c8 3b 31 f4 85 bd
       -0.07296237 -0.02138466 0.0061240583 -0.065407164
000280 85 09 cf bd 60 b1 81 3c 39 7a 44 89 c0 06 16 07
       -0.101092376 0.01583165 -2.365011e-33 1.1286729e-34
000290 9b 80 7b 87 54 cd 46 86 a7 ad 33 08 65 e9 ba 07
       -1.8920935e-34 -3.7390512e-35 5.406998e-34 2.8123346e-34
0002a0 27 10 1f 3e 59 b4 93 3e 0f 5a d0 3d 79 07 a2 3e
       0.15533505 0.28848532 0.10173427 0.31646326
0002b0 a4 ab c9 3d 6e b2 65 3e cc b4 8d 3a aa ba a9 3a
       0.09847191 0.22431347 0.0010811328 0.0012949307
0002c0 85 d3 8a 3a de 49 69 3a 76 a0 4b 3a e8 4e 8e 39
       0.0010591602 0.00088992517 0.0007767746 0.0002714314
0002d0 02 6f 94 bd e3 7c 98 3e 76 44 de 3d ff b3 e6 3e
       -0.072477356 0.2978278 0.10852902 0.450592
0002e0 eb 75 84 3e 18 20 0e 3f 8e d8 9c 1f 57 39 9e 1d
       0.25871214 0.5551772 6.642683e-20 4.188154e-21
0002f0 df 30 2d 1c 7b 47 ab 1d d0 01 8e 1d 66 08 9d 1d
       5.7304063e-22 4.5337232e-21 3.758896e-21 4.1566238e-21

fc1.bias f4 [8]
000000 30 62 1f 3e 6f 49 d4 b4 0f 37 07 af 66 0e ae bd
       0.155648 -3.9541507e-07 -1.2297739e-10 -0.0849884
000010 02 5c dd 3d 57 30 d1 3d c9 01 d6 3d 27 68 4a 3e
       0.10808565 0.10214298 0.10449559 0.19766293

fc2.weight f4 [1, 8]
000000 c5 ba 0d 3f 0c bd b6 3c 29 97 05 8c c0 f3 a5 3e
       0.5536311 0.022306941 -1.0291435e-31 0.3241253
000010 5b 61 d3 bd 1f f3 30 be fd 5b 3a bd 13 69 91 3e
       -0.103213035 -0.17280243 -0.045497883 0.28400478
